…
 'fft_length': 256,
 'fs_upsampling': 384000,
 'green': False,
 'hlayers_hyper': 1,
 'learning_rate': 0.001,
 'loss_weights': {'cdintra_z': 1, 'lsd': 1},
 'max_frequency': 16000,
 'model': 'AE',
 'num_gpus': 1,
 'num_pts': 440,
 'num_sub': 77,
 'save_frequency': 400,
 'use_itd_gt': True}
=====================
artifacts_dir: outputs/model_0
Train
---------------------
train data's mean:-0.3186933398246765, std:0.568795919418335
=====================
HRTF_Interp_AE(
  (Encoder_z): Sequential(
    (0): HyperLinearBlock(
      (hyperlinear): HyperLinear(
        (weight_layers): Sequential(
          (0): Linear(in_features=3, out_features=64, bias=True)
          (1): LayerNorm((64,), eps=1e-05, elementwise_affine=True)
          (2): ReLU()
          (3): Dropout(p=0.0, inplace=False)
          (4): Linear(in_features=64, out_features=64, bias=True)
          (5): LayerNorm((64,), eps=1e-05, elementwise_affine=True)
          (6): ReLU()
          (7): Dropout(p=0.0, inplace=False)
          (8): Linear(in_features=64, out_features=32768, bias=True)
        )
        (bias_layers): Sequential(
          (0): Linear(in_features=3, out_features=64, bias=True)
          (1): LayerNorm((64,), eps=1e-05, elementwise_affine=True)
          (2): ReLU()
          (3): Dropout(p=0.0, inplace=False)
          (4): Linear(in_features=64, out_features=64, bias=True)
          (5): LayerNorm((64,), eps=1e-05, elementwise_affine=True)
          (6): ReLU()
          (7): Dropout(p=0.0, inplace=False)
          (8): Linear(in_features=64, out_features=128, bias=True)
        )
      )
      (layers_post): Sequential(
        (0): LayerNorm((128,), eps=1e-05, elementwise_affine=True)
        (1): ReLU()
        (2): Dropout(p=0.0, inplace=False)
      )
    )
    (1): HyperLinearBlock(
      (hyperlinear): HyperLinear(
        (weight_layers): Sequential(
          (0): Linear(in_features=3, out_features=64, bias=True)
          (1): LayerNorm((64,), eps=1e-05, elementwise_affine=True)
          (2): ReLU()
          (3): Dropout(p=0.0, inplace=False)
          (4): Linear(in_features=64, out_features=64, bias=True)
          (5): LayerNorm((64,), eps=1e-05, elementwise_affine=True)
          (6): ReLU()
          (7): Dropout(p=0.0, inplace=False)
          (8): Linear(in_features=64, out_features=8192, bias=True)
        )
        (bias_layers): Sequential(
          (0): Linear(in_features=3, out_features=64, bias=True)
          (1): LayerNorm((64,), eps=1e-05, elementwise_affine=True)
          (2): ReLU()
          (3): Dropout(p=0.0, inplace=False)
          (4): Linear(in_features=64, out_features=64, bias=True)
          (5): LayerNorm((64,), eps=1e-05, elementwise_affine=True)
          (6): ReLU()
          (7): Dropout(p=0.0, inplace=False)
          (8): Linear(in_features=64, out_features=64, bias=True)
        )
      )
      (layers_post): Sequential(
        (0): LayerNorm((64,), eps=1e-05, elementwise_affine=True)
        (1): ReLU()
        (2): Dropout(p=0.0, inplace=False)
      )
    )
    (2): HyperLinearBlock(
      (hyperlinear): HyperLinear(
        (weight_layers): Sequential(
          (0): Linear(in_features=3, out_features=64, bias=True)
          (1): LayerNorm((64,), eps=1e-05, elementwise_affine=True)
          (2): ReLU()
          (3): Dropout(p=0.0, inplace=False)
          (4): Linear(in_features=64, out_features=64, bias=True)
          (5): LayerNorm((64,), eps=1e-05, elementwise_affine=True)
          (6): ReLU()
          (7): Dropout(p=0.0, inplace=False)
          (8): Linear(in_features=64, out_features=4096, bias=True)
        )
        (bias_layers): Sequential(
          (0): Linear(in_features=3, out_features=64, bias=True)
          (1): LayerNorm((64,), eps=1e-05, elementwise_affine=True)
          (2): ReLU()
          (3): Dropout(p=0.0, inplace=False)
          (4): Linear(in_features=64, out_features=64, bias=True)
          (5): LayerNorm((64,), eps=1e-05, elementwise_affine=True)
          (6): ReLU()
          (7): Dropout(p=0.0, inplace=False)
          (8): Linear(in_features=64, out_features=64, bias=True)
        )
      )
      (layers_post): Sequential(
        (0): Identity()
      )
    )
  )
  (Decoder_z): Sequential(
    (0): HyperLinearBlock(
      (hyperlinear): HyperLinear(
        (weight_layers): Sequential(
          (0): Linear(in_features=3, out_features=64, bias=True)
          (1): LayerNorm((64,), eps=1e-05, elementwise_affine=True)
          (2): ReLU()
          (3): Dropout(p=0.0, inplace=False)
          (4): Linear(in_features=64, out_features=64, bias=True)
          (5): LayerNorm((64,), eps=1e-05, elementwise_affine=True)
          (6): ReLU()
          (7): Dropout(p=0.0, inplace=False)
          (8): Linear(in_features=64, out_features=8192, bias=True)
        )
        (bias_layers): Sequential(
          (0): Linear(in_features=3, out_features=64, bias=True)
          (1): LayerNorm((64,), eps=1e-05, elementwise_affine=True)
          (2): ReLU()
          (3): Dropout(p=0.0, inplace=False)
          (4): Linear(in_features=64, out_features=64, bias=True)
          (5): LayerNorm((64,), eps=1e-05, elementwise_affine=True)
          (6): ReLU()
          (7): Dropout(p=0.0, inplace=False)
          (8): Linear(in_features=64, out_features=128, bias=True)
        )
      )
      (layers_post): Sequential(
        (0): LayerNorm((128,), eps=1e-05, elementwise_affine=True)
        (1): ReLU()
        (2): Dropout(p=0.0, inplace=False)
      )
    )
    (1): HyperLinearBlock(
      (hyperlinear): HyperLinear(
        (weight_layers): Sequential(
          (0): Linear(in_features=3, out_features=64, bias=True)
          (1): LayerNorm((64,), eps=1e-05, elementwise_affine=True)
          (2): ReLU()
          (3): Dropout(p=0.0, inplace=False)
          (4): Linear(in_features=64, out_features=64, bias=True)
          (5): LayerNorm((64,), eps=1e-05, elementwise_affine=True)
          (6): ReLU()
          (7): Dropout(p=0.0, inplace=False)
          (8): Linear(in_features=64, out_features=32768, bias=True)
        )
        (bias_layers): Sequential(
          (0): Linear(in_features=3, out_features=64, bias=True)
          (1): LayerNorm((64,), eps=1e-05, elementwise_affine=True)
          (2): ReLU()
          (3): Dropout(p=0.0, inplace=False)
          (4): Linear(in_features=64, out_features=64, bias=True)
          (5): LayerNorm((64,), eps=1e-05, elementwise_affine=True)
          (6): ReLU()
          (7): Dropout(p=0.0, inplace=False)
          (8): Linear(in_features=64, out_features=256, bias=True)
        )
      )
      (layers_post): Sequential(
        (0): Identity()
      )
    )
  )
)
=====================
Train model.
number of trainable parameters: 5680000
---------------------
logdir: outputs/model_0/logs/AE_0918_2219
---------------------
num_sub: 77, batch_size: 32, num_batch:3.0
[W Copy.cpp:240] Warning: Casting complex values to real discards the imaginary part (function operator())
…
